211870287_LeNet_丁旭/Lenet.pth (torch, 487900 bytes, 10 tensors)

conv1.weight f4 [16, 3, 5, 5]
000000 4d 72 22 be 35 c8 d9 bd 34 53 5d 3d 3a 63 ad bd
       -0.15863915 -0.106338896 0.054034427 -0.084661916
000010 43 ed 0e be d9 28 71 bd ce f0 38 bb 47 a3 81 bd
       -0.13957696 -0.058876846 -0.0028219703 -0.06329971
000020 42 d5 33 be ed 90 ee 3d 77 c8 1d bd 23 8a af bd
       -0.1756182 0.11648736 -0.038521256 -0.08571269
000030 5e 36 63 be 2b c7 ed bc 26 cf 48 3e 1d 30 96 3b
       -0.22188708 -0.029025635 0.19610271 0.0045833723
000040 e1 3f 98 bd 5a 6e be be 5a e8 41 3e 27 6f b0 3e
       -0.07434059 -0.37193567 0.18936291 0.34459803
000050 a4 94 18 3d 1b 0e 5c be 74 89 91 be 3f 2a 81 3c
       0.03725113 -0.21489756 -0.2842518 0.015767215
000060 c8 2d 7b 3e 2c c7 fd bd fe 66 e0 3d 80 a6 86 bc
       0.24529183 -0.12391505 0.10957144 -0.016436815
000070 f4 1f 48 bd 18 2e 05 be 1e 70 62 bd 9d c1 d0 3d
       -0.048858598 -0.13005865 -0.055282705 0.10193179
000080 0e e0 9b 3c 12 6e 63 3d 87 f1 20 3c 2a 8a 0a 3e
       0.019027736 0.055524893 0.00982321 0.13529268
000090 72 51 68 3d 20 e8 b8 3c 9a c1 43 bd 67 70 0f 3e
       0.056718297 0.022571623 -0.047792055 0.14007722
0000a0 aa 82 d8 3c e2 6d 73 be 1e 31 32 be b2 79 ef 3d
       0.026429493 -0.23772386 -0.17401549 0.116931334
0000b0 e4 be 96 3e f9 a3 03 3c e4 12 7a be c3 a8 6c be
       0.29442513 0.0080347 -0.24421269 -0.23111252
0000c0 e1 a7 c1 3d c1 8e 73 3e 0c 61 23 be d9 83 80 3d
       0.094558485 0.23784925 -0.15954989 0.06275148
0000d0 ca fd 1a 3e 42 26 e7 3c 26 16 af bc 0e 2c 0e be
       0.15135875 0.028216485 -0.021372866 -0.13883993
0000e0 f1 bd 6a 3e 9a 63 22 3e 80 8e f6 3a cf f5 08 3e
       0.2292402 0.15858307 0.0018810779 0.13375019
0000f0 84 18 43 3c 28 66 06 3e 5c 6a 68 bd dc ff 71 3e
       0.0119077 0.13124907 -0.056742057 0.23632759
000100 98 d7 35 3e 40 74 1e 3a 32 1d ba bd d0 ea 52 bd
       0.17758024 0.0006044544 -0.090876 -0.051493466
000110 96 a9 7b 3e 40 44 4d 3e f3 88 d6 bd c5 5b 5e be
       0.2457641 0.20045567 -0.1047534 -0.21714695
000120 ab 2c 44 be f4 48 ba 3e ee 49 a6 3e e2 31 97 bd
       -0.19157664 0.36383784 0.3247828 -0.07382561
000130 41 54 d1 bd 10 9e 54 3e 15 46 8c 3d 2b 07 04 3d
       -0.10221148 0.20763421 0.068493046 0.0322334
000140 60 fa 82 3d ad 78 ca 3d 0a 7e 4a bd 22 77 dd bd
       0.063954115 0.09886298 -0.049436606 -0.108137384
000150 ca af d4 3a 23 e8 f4 3d 8c 2b 29 3e 67 04 05 3e
       0.0016226706 0.11958339 0.16520518 0.1298996
000160 6a 9d c2 bc 36 69 43 3b 6c 89 41 3e a7 bf 58 3e
       -0.023756701 0.002981735 0.18900079 0.2116686
000170 91 c0 b4 3c 3c b1 12 bd b6 10 f3 3c 36 75 cc 3b
       0.022064479 -0.035813555 0.029671054 0.0062395586
000180 28 8a ac 3d db d6 be 3d b9 c4 88 bd d0 4d 61 be
       0.08424789 0.09318324 -0.06678147 -0.2200234
000190 2b 63 39 3d 5a be c0 bd 80 d3 f0 bd 0b bc fb bd
       0.04526059 -0.09411307 -0.117590904 -0.12291726
0001a0 83 f7 a8 bd a2 77 4c 3e 54 00 9c 3d 19 a1 00 be
       -0.08250334 0.19967511 0.0761725 -0.12561454
0001b0 bc 04 7b be 1d bf 0e be 10 ed 59 3e e9 55 6d 3d
       -0.24513525 -0.13940091 0.21281838 0.05794326
0001c0 54 35 1b be f4 35 b1 be 30 61 9a be f6 56 5f 3e
       -0.15157062 -0.34611475 -0.30152273 0.21810517
0001d0 d4 a2 1a bc 55 53 ed bd 8a 77 65 be 57 a9 17 be
       -0.009438235 -0.1158816 -0.22408882 -0.14810692
0001e0 3f 95 4f 3e 38 9c 18 ba d1 00 6c bd 98 42 e4 bd
       0.20271777 -0.0005821618 -0.057617966 -0.11145514
0001f0 e7 5f 30 be d6 a5 96 3d a0 c7 9e 3d cb 47 3c 3c
       -0.17224084 0.073558494 0.07752919 0.011491726
000200 5d 0c 7d 3c 93 d7 df bc 19 fd 3b 3e 31 b4 1f 3e
       0.015444842 -0.027324473 0.18358268 0.15596081
000210 fe f3 6c bc ca 6d fc bd 48 46 43 be cf 87 31 3e
       -0.014462469 -0.12325628 -0.19069779 0.17336963
000220 6b d9 74 3e 54 28 02 bc 06 2b 58 be 74 1f 8f be
       0.23911063 -0.007944185 -0.21110162 -0.27953684
000230 c3 54 2d 3e c4 16 de 3d e3 3c 2c 3e 2e c1 ba bd
       0.16926865 0.10844186 0.16820101 -0.09118877
000240 f9 5d 84 be 42 36 52 3e e6 9b 83 3e 1b 3c 9b 3d
       -0.25852945 0.2052851 0.2570488 0.075798236
000250 54 0f 08 3d 50 f7 6d bd ee d9 cb bd 7a 6b d0 bd
       0.033217743 -0.058097184 -0.09953676 -0.101767495
000260 12 9c 93 bd c0 e2 81 bc 65 10 c9 3c a9 47 11 be
       -0.072075024 -0.015855193 0.02454395 -0.14187492
000270 71 53 4c be 7b ec 2b be b5 93 6a be 6c 00 12 be
       -0.19953705 -0.16789429 -0.22907908 -0.14257973
000280 4b 96 cd bd 73 ee 82 be 9e dc 81 be 16 d9 8d be
       -0.10038432 -0.25572547 -0.2536363 -0.27704686
000290 2e d3 33 be a2 d5 6a bd 61 59 96 bd 30 1a eb bc
       -0.17561027 -0.057332642 -0.073412664 -0.02869901
0002a0 e0 a8 c7 bc 11 c7 0a be 7b f0 ae bd 74 31 9a bd
       -0.024372518 -0.135525 -0.08541962 -0.07528964
0002b0 1a 21 8f bc 22 7c 44 bc d7 82 72 be c2 3c 1a be
       -0.017471839 -0.011992486 -0.23682724 -0.1506224
0002c0 11 d6 ae 3d 13 3e 4b 3e da e7 e0 3d be 06 49 3d
       0.08536924 0.19847898 0.10981722 0.049078695
0002d0 e2 39 01 3e c4 68 2e 3d 7c 62 11 bc 5f b2 e8 bd
       0.12619737 0.04258038 -0.008873578 -0.113621466
0002e0 d6 78 06 3d e5 a4 be 3d 99 41 02 be c2 e2 b8 bd
       0.032830082 0.09308795 -0.12720336 -0.090276256
0002f0 d1 57 9e 3d ef 8e e6 3d a7 64 8f 3b 8d b8 21 3e
       0.077315934 0.11257731 0.0043760124 0.15793057
000300 03 91 d9 3d e8 85 9d 3d bd 43 07 3d 2c 7c bf bd
       0.10623362 0.07691556 0.033023585 -0.09349856
000310 97 84 1b 3e e0 1b 25 3e 07 76 26 3c 63 92 0f be
       0.15187298 0.16123915 0.010159976 -0.14020686
000320 0c e5 56 3d a7 9e 79 3e 96 cb 46 3e da 7c 5f 3e
       0.05246453 0.24376927 0.194136 0.21824971
000330 54 7e f5 bb 94 7a 79 3e 35 e8 47 3e a0 4e 1f 3e
       -0.007491866 0.24363166 0.19522174 0.15557337
000340 91 58 72 3e 0c d5 90 bd c4 6b 92 3d 75 20 a5 3d
       0.23666598 -0.070718855 0.07149461 0.08062831
000350 d7 85 2c 3d af b1 55 3e 82 7f 12 bd e6 03 c5 3d
       0.042119827 0.20868562 -0.035766132 0.09619884
000360 e3 f8 b2 3d 57 00 fc 3d 94 ff bf 3d 82 5e 2d 3e
       0.087388776 0.12304752 0.093749195 0.16930583
000370 15 db 06 be c8 dd 3e 3d 2b 51 30 bd a7 3d a5 bd
       -0.1316951 0.046598226 -0.043046158 -0.080684
000380 16 9c 66 bd f4 7c 02 3e 88 fc 90 3d a5 e1 e9 bd
       -0.0563012 0.12742978 0.070794165 -0.114199914
000390 27 c2 4f be e5 27 71 be 12 3f b3 3e 69 81 1f 3e
       -0.20288907 -0.23550375 0.35009056 0.1557671
0003a0 b0 4f 0c be 34 73 cb be 9f 30 a6 be f5 35 ff 3e
       -0.13702273 -0.3973633 -0.3245897 0.49845853
0003b0 d6 e5 b5 3e 33 de 9a be 9a d3 dd be 48 db be be
       0.35526913 -0.3024765 -0.43325502 -0.37276673
0003c0 c4 0f 0f 3f 52 97 04 3f 91 e7 93 bd b0 7b b0 be
       0.5588343 0.51793396 -0.07221902 -0.34469366
0003d0 32 60 01 bf 35 18 00 3f 87 28 1c 3f e5 d0 44 3e
       -0.5053741 0.50036937 0.6099934 0.19220312
0003e0 04 55 2b be 78 c2 92 be c2 43 81 bc 68 dd ea 3b
       -0.1673165 -0.28663993 -0.01577938 0.007167507
0003f0 bd 79 5e bc 06 42 5e 3d 68 e1 87 3d 42 5b bb bd
       -0.013578829 0.054262184 0.0663479 -0.091482654

conv1.bias f4 [16]
000000 f7 fe c9 bf db 57 f4 be 8f 92 90 3d 39 93 23 bf
       -1.5780934 -0.47723278 0.07059204 -0.6389652
000010 1a b3 54 be f0 52 2e bf 2c e7 a8 bf 4a 06 da be
       -0.20771447 -0.680953 -1.3195548 -0.42582923
000020 3b 81 6b be 2e 1a 39 bf b4 d2 07 bf 89 60 b6 be
       -0.22998516 -0.7230557 -0.5305588 -0.35620525
000030 0a 86 c4 be d5 7f b9 be 5e c7 3c bf 40 81 81 bf
       -0.38383514 -0.3623034 -0.7374171 -1.0117569

conv2.weight f4 [32, 16, 5, 5]
000000 7c 6d 63 be ea 60 aa 3d 37 63 6b be 26 5c 09 3e
       -0.22209734 0.08319266 -0.22987066 0.13414058
000010 13 f3 d3 be 98 9a ff be 1e 2b af be 06 d8 59 bf
       -0.41396388 -0.49922633 -0.34212583 -0.8509525
000020 5d d6 37 3e 45 16 11 3e 07 7d e3 be 24 c3 85 bd
       0.17952867 0.14168651 -0.44431326 -0.06531361
000030 69 d4 0c bf 80 25 43 3e ac 59 6d 3d 9b 5c 58 be
       -0.5501161 0.19057274 0.057946846 -0.21129076
000040 dc 36 07 bf 34 47 2f be 25 af 25 3e c3 25 27 be
       -0.52818084 -0.17117006 0.16180094 -0.16322999
000050 5c 45 0a 3f 24 76 9f 3e 98 1d 76 be 6b 19 cb 3e
       0.54012084 0.31144822 -0.24034727 0.3966783
000060 3f b2 8b 3d cd 61 a8 3d d6 ba e2 3d 57 25 11 3e
       0.06821107 0.08221779 0.110707924 0.141744
000070 8d 2f 07 be a1 d1 27 be a9 a3 b9 3d aa 65 d5 3d
       -0.13201733 -0.16388561 0.09064419 0.104197815
000080 44 2d 6b 3d 2f 14 1f be 27 3b b9 bd f8 74 76 be
       0.057416216 -0.15535043 -0.090444855 -0.24068058
000090 02 f2 17 3d 85 ce 6e be 91 28 35 be 36 3e 86 3b
       0.03709603 -0.23320968 -0.17691256 0.0040967716
0000a0 20 ea 96 bd 68 3b 04 3d b0 39 b2 be 14 15 22 be
       -0.073688745 0.032283217 -0.34809637 -0.15828353
0000b0 62 84 4c bd 14 0c d6 3e c5 e1 3b 3e 86 56 00 3d
       -0.049930938 0.4180609 0.18347843 0.031332515
0000c0 cd 6c ae bc 52 c2 5b 3e 26 1b 63 be c0 ad 68 39
       -0.021292115 0.21460846 -0.22178325 0.00022189971
0000d0 95 3e 01 3e 9f 94 0b bd d4 75 d3 be 3b 1f 6a be
       0.1262153 -0.034077283 -0.41300833 -0.22863476
0000e0 04 7e 64 bd aa ba cc be dc e1 99 be 1b a4 b2 be
       -0.05578424 -0.39986163 -0.3005513 -0.34890828
0000f0 ea 79 0b bf c6 bb 48 bf 19 f7 75 bf 4c 2b 66 bf
       -0.544829 -0.7841152 -0.96080166 -0.89909816
000100 75 07 1d bf 21 d9 14 bf 3d c0 84 bf fa 55 3c bf
       -0.61339504 -0.5814381 -1.0371166 -0.7356869
000110 ee 1a 84 bf 7b 1f 22 bf e0 d4 66 be 5e ed 9d be
       -1.0320718 -0.63329285 -0.22542143 -0.3084516
000120 98 cd 11 bf c3 a2 76 bf 41 f7 a6 be ce a9 3d 3c
       -0.56954336 -0.96342105 -0.32610515 0.011576129
000130 ad 0f d6 3b d0 1a a8 3d d3 8b 9a bb 24 66 24 3e
       0.0065326304 0.08208239 -0.0047163754 0.16054589
000140 ed bc 87 be 4e f4 82 3c 14 4d 0b bf ae 84 8c 3d
       -0.26511326 0.015985634 -0.54414487 0.06861244
000150 98 9c d9 3e d8 02 2a bf 84 1c 88 3c b9 85 1a bf
       0.42502284 -0.6641059 0.01661516 -0.60360295
000160 e1 b5 a4 be 23 97 03 3e 09 f9 11 bd 42 40 e5 3b
       -0.32170013 0.12850623 -0.03563789 0.0069961855
000170 86 09 0b bf 9d d5 1a be 85 51 f3 3d e4 04 00 3e
       -0.54311407 -0.1512055 0.11880783 0.12501866
000180 09 c2 fa 3d 8c 85 cd be bb 90 ca bd 67 6c 89 3e
       0.122440405 -0.4014095 -0.098908864 0.26840517
000190 68 01 ca bd 55 90 cc bb 48 65 4e bd e6 f6 00 bd
       -0.098635495 -0.0062427917 -0.050389558 -0.03148546
0001a0 05 11 e5 3d be f5 7e be 10 85 40 3a 8d 26 94 3d
       0.11184887 -0.2489843 0.00073440466 0.072339155
0001b0 ef b3 d8 3d 68 36 14 bc 40 c9 9f 3b 5c 8b d3 bd
       0.105811946 -0.009046175 0.004876286 -0.10329315
0001c0 43 f7 ee 3d 50 98 d9 3d ed d2 9c 3d 85 fd 74 3d
       0.11668255 0.106247544 0.076574184 0.059812088
0001d0 6a dc 4b bd 42 a4 42 bd 73 d7 2e 3d 2d 95 40 bd
       -0.04977075 -0.04751993 0.042685937 -0.047017265
0001e0 f9 d6 50 be f8 27 1c be 67 14 38 be 7f af df bd
       -0.20394506 -0.15249622 -0.17976533 -0.10922145
0001f0 67 a8 10 3c 0f 02 96 3e 7b 92 9a 3e 0c d6 47 3e
       0.008829213 0.29298446 0.3018988 0.19515246
000200 29 06 14 3d 7c 0c 35 bc 7c 90 b7 3d f8 0e b8 bd
       0.036138687 -0.01105034 0.08963105 -0.0898723
000210 cc 8b ac 3c 15 f4 2d 3d d2 2d 00 3d 45 55 f9 3d
       0.021062754 0.042469103 0.031293698 0.12174467
000220 f8 8b bb be 66 6c e1 bd 49 94 d2 3d c7 57 bc 3d
       -0.36630225 -0.110070035 0.102821894 0.0919643
000230 73 2f 24 3d e5 d9 0a be 26 bd 40 bd 3a 2b 22 3e
       0.040084314 -0.13559683 -0.047055386 0.15836802
000240 34 19 0f be 7e f4 c1 bd 62 3e 90 be b8 72 28 be
       -0.13974458 -0.09470461 -0.28172594 -0.16450012
000250 73 89 23 be 1b 95 84 be 46 9f 9a bc c0 ed 4b be
       -0.15970401 -0.25895008 -0.018874776 -0.19914913
000260 0f fa 86 be 76 d7 fd 3e b4 29 f5 3e 5f 8c 90 bd
       -0.26362655 0.49578446 0.4788338 -0.07058024
000270 61 48 f1 be 20 36 ac be 5b de 88 be fe 0b 9a 3e
       -0.47125533 -0.33635044 -0.26732144 0.30087274
000280 7d 0e 29 3e 07 12 0d be a0 d4 c6 be 81 f2 9f be
       0.16509433 -0.13776408 -0.38834095 -0.31239703
000290 56 25 38 3d e1 b7 12 3e 0b 06 f7 3d 0a fa 55 3b
       0.04495748 0.14327957 0.120616995 0.0032650256
0002a0 0e 1f 2b be 67 41 8b bc a3 02 f8 bd 4f 4b 81 bd
       -0.16711065 -0.01699896 -0.12109878 -0.06313192
0002b0 0c e5 e4 be 51 f3 07 3e 46 fb 9c 3e 19 42 dd be
       -0.44706 0.13276412 0.30660456 -0.4321449
0002c0 13 6b d1 3c 08 8f 65 3e 9d 43 07 3e 0c 81 23 bf
       0.025563752 0.22417843 0.13209386 -0.63868785
0002d0 68 fd b6 bd 39 0b 4a be e1 37 0a bf 68 b4 32 3e
       -0.08935052 -0.19730844 -0.53991514 0.17451632
0002e0 86 7d 2f 3e b6 dd 36 be e7 c2 b5 bc 01 7f 99 3b
       0.17137727 -0.17858014 -0.022187663 0.0046843295
0002f0 31 55 47 be 81 28 40 be 7f 06 17 bf 0c 36 73 be
       -0.19466092 -0.18765451 -0.5899429 -0.23751086
000300 4b 34 0f 3d fa 8d 09 bf d4 b6 a8 be bd ea 15 be
       0.03496198 -0.53732264 -0.32951987 -0.14640327
000310 1e 64 a4 3d 0d 85 b6 3d 40 4d 91 3e 2a 5b ed 3e
       0.08026908 0.08912096 0.2837925 0.46358615
000320 4c 1d 87 bb 1d 41 e0 3c 4b 20 39 3d b4 ae 3d be
       -0.0041233655 0.027374798 0.045196813 -0.18523675
000330 d6 8a 31 be 76 16 9e be 2b 95 de be 24 4e 9d be
       -0.17338118 -0.3087651 -0.4347318 -0.3072368
000340 ff f8 4c be cd bb ef 3c ed 2f c0 be b4 ce 2c bf
       -0.2001686 0.029264355 -0.37536564 -0.67502904
000350 0e b8 bd be 93 f8 78 be 5a b8 92 bc 28 b6 3e be
       -0.37054485 -0.24313574 -0.017910171 -0.18624175
000360 6b 60 c3 be 95 3f e6 be 62 c2 21 be 42 9d 7d bd
       -0.381595 -0.44970384 -0.15796807 -0.06191755
000370 7e 38 1f 3e e2 18 97 3e a7 a5 e8 be 2e 80 d6 bd
       0.15548894 0.29511172 -0.45438883 -0.10473667
000380 84 26 72 bc d9 dc ca 3e 34 49 67 be a8 62 0b bf
       -0.014779691 0.39621618 -0.22586519 -0.5444741
000390 8d 60 a5 be 81 9c 79 be 78 f7 a5 3d 68 b5 13 be
       -0.32300225 -0.24376108 0.081038415 -0.1442467
0003a0 d8 2b 9d be 96 6d be be 59 f6 e5 be 49 ed 19 be
       -0.30697513 -0.37192982 -0.4491451 -0.15031923
0003b0 1a d8 1c 3e 9e c6 d6 bd cb 68 30 be 99 32 03 bc
       0.15316811 -0.10487102 -0.17227475 -0.008007669
0003c0 d0 dd 3d 3d 89 6e ba 3e 49 5e c4 3d 87 b8 60 3c
       0.046354115 0.36412457 0.09588296 0.01371587
0003d0 d3 96 e3 3d c8 a4 25 3d a3 d9 0d 3e 52 ff 9e 3e
       0.11112752 0.04044035 0.13852553 0.3105417
0003e0 64 e8 ad 3e 8a bf 13 3e 27 ae cc 3d bb e9 4f 3e
       0.33966362 0.14428535 0.099941544 0.20304005
0003f0 ce e4 99 bd 5f 0a 1a be 84 5c ca be a6 a0 dc 3e
       -0.07514344 -0.15043019 -0.3952371 0.43091315

conv2.bias f4 [32]
000000 d0 4c 8d 3e c5 48 cc 3e a8 f7 02 bf b3 87 d2 bd
       0.27597666 0.3989927 -0.51159143 -0.10279789
000010 6a 46 be bd 7b 69 7e be ed a7 5f 3e 30 b1 81 3e
       -0.09290774 -0.24844925 0.21841402 0.25330496
000020 39 d6 61 3f ef b5 e3 bd 38 d8 da bd 4c f3 a3 3f
       0.882175 -0.111186855 -0.10685772 1.2808623
000030 d9 87 1f 3f 2f 67 be bd 5a df b9 bd b3 6f 78 3e
       0.6231666 -0.092970245 -0.09075804 0.2426136
000040 cf 5e d2 3d 52 2e 78 3e 6d dd 16 3e 6f f6 63 bf
       0.102719896 0.2423642 0.14732905 -0.890479
000050 af 4d 72 3f e6 34 40 3e 9d 87 d6 3e 67 df 70 3e
       0.94649786 0.18770179 0.4190034 0.23522721
000060 8b 4b 3d bf 74 88 81 3f 79 59 e4 bd ea cd 30 3f
       -0.73943394 1.0119767 -0.11149878 0.690642
000070 7e 17 d0 be 0f 11 46 3e ab 67 51 bd e9 67 93 bd
       -0.40642923 0.19342445 -0.051124256 -0.07197554

fc1.weight f4 [120, 800]
000000 82 d9 5e bf 61 6c 30 be 35 28 29 3c b7 1d 50 3e
       -0.8705064 -0.17228843 0.0103245275 0.20323835
000010 fe a7 4a 3d 25 67 b9 3d 1f 47 b7 3e 01 41 cb 3e
       0.049476616 0.090528764 0.3579645 0.39698032
000020 71 18 6f 3e ab 4f 5b 3e 9c 04 82 be 17 9f 43 bd
       0.23349167 0.2141711 -0.25394142 -0.04775914
000030 ae 5e f1 3d 36 4d 41 3d 84 bd 8d bd fc ce 22 be
       0.11785637 0.047192775 -0.06920913 -0.15899271
000040 92 7a eb bd 09 61 ef 3d 18 61 b9 3d 90 26 8b be
       -0.11497988 0.1168843 0.09051722 -0.27177858
000050 38 43 ba bd cb 34 a0 3e 80 c5 18 3e 35 83 f5 3c
       -0.09094852 0.31290278 0.1491909 0.029969791
000060 df 57 36 3e ce 99 80 3e 0c 71 b0 be 75 8b 48 be
       0.17806958 0.25117344 -0.34461248 -0.19584449
000070 87 45 91 be c6 37 16 3f 47 d2 ba 3e fb 37 7e 3e
       -0.28373358 0.58678854 0.36488554 0.24826042
000080 06 ce 94 3d c9 78 f6 3d 05 20 04 3e 3c e2 8e 3d
       0.07265858 0.12034757 0.1290284 0.069767445
000090 8f f3 ba 3e 1d 06 8a 3e 66 e5 03 3f fa 18 83 3e
       0.36513945 0.2695779 0.5152191 0.25604993
0000a0 31 c4 ad 3e ca bd 1c 3f 97 a5 df 3e 28 5e 11 3e
       0.33938745 0.61227095 0.43681023 0.14196074
0000b0 20 b7 df 3c 57 fe 3e 3e 25 d2 91 3a 67 a0 72 3e
       0.027309 0.1865171 0.001112525 0.23694001
0000c0 27 0e 66 3d 17 16 ff be 54 ef 00 3f 0c a2 6a 3d
       0.05616584 -0.4982154 0.50365186 0.057283446
0000d0 9b ee 66 3e 63 ef 0b be 7f ca ce bd ed f8 c1 3e
       0.22551958 -0.13665538 -0.10097217 0.37885228
0000e0 47 ea a5 3e fb 33 58 bd c9 2a 86 3e 98 ab 87 3e
       0.32405302 -0.052783947 0.26204517 0.26498103
0000f0 4b d5 0f 3e 97 ea 58 bd 58 5f dc 3d b2 9c b5 be
       0.14046209 -0.052958097 0.10760373 -0.35471112
000100 c8 d4 5d 3e 6e 15 6b be 33 69 68 3e 73 1b 0f be
       0.21663201 -0.22957394 0.2269638 -0.13975315
000110 32 0c 44 be 23 88 d3 3d d7 2c 1b 3e 6e 2a d4 3d
       -0.19145277 0.103287004 0.15153824 0.10359655
000120 cb 9b 1e bd ff 68 95 3e f6 96 c1 bc 0b 7d 7c 3d
       -0.038722795 0.29181668 -0.023631554 0.061642688
000130 37 ef 11 3d 1d b3 c2 bd ee 99 6f bd 97 0d 7d 3c
       0.035628524 -0.095068194 -0.05849641 0.015445135
000140 b9 a2 a8 3d 55 2f 3c 3c d1 5b 36 bd b2 54 31 bc
       0.08234162 0.011485894 -0.044521157 -0.010823416
000150 1b ed 75 3d d0 9e b2 bc ec 19 e7 3d be 4a a6 3c
       0.060040575 -0.021804243 0.11284241 0.020299312
000160 10 53 1a bc 31 9d 38 bd 54 05 02 3d 8b 2f 54 bd
       -0.009419218 -0.045071784 0.031743363 -0.051803153
000170 61 5a 4e 3c 7d f4 9f 3d b8 ad c8 bc ec 0e da bc
       0.01259479 0.07810304 -0.024496898 -0.026618443
000180 ec 6e 86 3d 80 5d 5c 3c 5d 3e 77 3c 88 06 1d bc
       0.065641254 0.0134500265 0.015090552 -0.009584077
000190 44 94 41 3c 66 6d 5b 3c a4 0e 43 3d a3 ba 60 3d
       0.011815134 0.013392782 0.047621384 0.05486549
0001a0 cf 31 4c 3d 3b f7 65 3a e7 b1 66 3b a2 ac 86 bc
       0.04985219 0.0008772497 0.0035201253 -0.01643974
0001b0 a2 ad 41 3c 49 17 31 bc 9e 83 0a 3b 57 9c 8d 3c
       0.011821182 -0.010808774 0.002113558 0.017286463
0001c0 c7 03 ef 3c be 7d c3 bc 20 98 a4 bc c5 8f 40 3b
       0.029176606 -0.02386367 -0.02009207 0.0029382568
0001d0 ca af b1 3c 87 f2 70 3d ab dd bf ba 8b cf 09 bd
       0.021690268 0.058825042 -0.0014638206 -0.033645194
0001e0 fd 9e 72 3c 06 9c fc 3b a3 1f 08 3d 38 2a a4 bb
       0.014808414 0.007709029 0.033233296 -0.0050099157
0001f0 8e 29 e4 bc 7d f2 75 3e 45 cf 33 be 28 65 5d 3d
       -0.027851846 0.24018283 -0.17559536 0.05405155
000200 5a 67 e9 bd f6 0d 94 be 87 85 77 3e c7 20 87 be
       -0.11396666 -0.289169 0.2417203 -0.26392195
000210 3a 22 e9 bd ff 03 a8 be 75 f0 95 3e 6c 34 fc bd
       -0.11383481 -0.3281555 0.29285017 -0.12314686
000220 d2 d9 cd 3c 9b 39 6c be 78 32 ab 3e 7b 8d ac 3e
       0.025128279 -0.2306885 0.33436942 0.3370169
000230 ff e4 8f bc bb 4e 94 3e a5 e3 37 3e 7c 88 03 3d
       -0.017565249 0.28966317 0.17957933 0.032112584
000240 a2 11 5f bd 66 a3 c8 3e 56 ca d7 3d 5f 50 62 be
       -0.054460175 0.39187163 0.105366394 -0.22100972
000250 72 f6 62 3d 64 d9 d8 be b3 b0 7e be 34 3d 8c 3e
       0.05541081 -0.42353356 -0.24872093 0.27390444
000260 1f 73 6e 3e 59 7c 15 3d 91 8a 8b 3e d4 e5 df 3e
       0.23286103 0.03649554 0.27254155 0.43730032
000270 4e 1c ef bd 44 37 73 bd 5c 92 1a 3e 09 ef 2b bd
       -0.116753206 -0.059378877 0.15094894 -0.04197601
000280 63 11 08 3e 3c 43 32 be 82 d3 89 be bd cb d7 bd
       0.13287883 -0.1740846 -0.2691918 -0.10536907
000290 99 11 a5 be 8c e1 dd 3d cc 51 e2 bd ab 6b 2a be
       -0.32239988 0.10834035 -0.11050758 -0.16642635
0002a0 0e 20 27 bf b2 55 5e 3c 1e 6a 9b 3e 3d 17 80 bc
       -0.65283287 0.013570236 0.30354398 -0.01563608
0002b0 c3 5b cc 3e 19 88 83 3e 0b 16 7e be 82 2f 35 3f
       0.3991376 0.25689772 -0.24813096 0.70775616
0002c0 11 81 d8 3e a9 6d 27 be 53 62 31 be ac 5e 14 bf
       0.4228597 -0.16350426 -0.17322664 -0.5795696
0002d0 9b d0 8a 3e b7 f8 b2 bc bf e8 3c be ca e5 a6 be
       0.27112278 -0.021847112 -0.1844816 -0.3259719
0002e0 fc 69 05 be 43 b9 8e be 0e 60 be bc 3f 62 88 3e
       -0.13028711 -0.27875718 -0.023239162 0.26637456
0002f0 10 77 05 bf e7 dd ab bd 9d 80 75 bc cd 97 4a 3e
       -0.521348 -0.08391934 -0.014984277 0.1978447
000300 89 82 25 3e f6 fe 84 3e b1 b2 29 be 75 4c 83 3e
       0.16163076 0.2597577 -0.16572072 0.2564427
000310 5e 1a 34 3e cb 0e b1 be 2e e7 27 bd 25 dc 40 3f
       0.17588183 -0.345816 -0.040991955 0.75335914
000320 45 72 55 be d3 8f 5b bd f8 bf dc 3e e0 35 e7 3e
       -0.20844372 -0.05360396 0.4311521 0.4515829
000330 17 74 94 3e 2f e6 5f 3e 63 63 a8 3d 2b 23 aa 3e
       0.2899482 0.21865152 0.082220815 0.33229956
000340 73 38 c9 3d b0 78 d0 3e 4f 04 c1 3c 08 65 9e 3d
       0.0982522 0.40717077 0.023561625 0.07734114
000350 a8 2a 6f 3e 7a 92 49 3e 79 7a e1 3e 39 1f e5 3e
       0.23356116 0.19684783 0.44038752 0.44750383
000360 b2 e5 c1 3e 2d 2b a7 3e 94 63 0d 3e 37 06 60 3e
       0.37870556 0.32650128 0.13807517 0.21877371
000370 89 d0 38 3f c1 30 68 3e de a6 30 3f 2d 5c d4 3e
       0.721932 0.22674848 0.6900462 0.41476575
000380 24 01 f9 3d ef aa 1f bf 84 d1 9f 3d ce fc 26 be
       0.12158421 -0.623702 0.07803634 -0.16307375
000390 6c 11 0f 3f 30 39 19 3e 6c ab 80 3e b2 ba 55 bd
       0.5588596 0.14963222 0.25130785 -0.05218
0003a0 44 7e 9f be 51 a3 53 be dd 7f d4 bd 46 58 03 be
       -0.3115102 -0.20667769 -0.103759505 -0.12826642
0003b0 bb d1 ca be a8 70 63 be 13 fd 96 be b0 75 e3 3e
       -0.39613137 -0.22210944 -0.29489955 0.44425726
0003c0 9d 56 fe bd 36 92 11 bf 98 15 24 3e 52 55 31 be
       -0.12418864 -0.56863725 0.16023862 -0.17317703
0003d0 96 18 a4 be 38 3d 13 bf fd 4d 80 bb b8 f0 ac 3d
       -0.32050008 -0.5751529 -0.003915547 0.08444351
0003e0 29 73 65 3e 22 c0 65 3e 5c 5a 31 be f5 f9 27 be
       0.22407211 0.22436574 -0.17319626 -0.16403945
0003f0 99 c9 9c 3d 98 c2 43 bd 54 c4 fc 3d 17 1b 81 3d
       0.07655639 -0.047793 0.12342134 0.06303995

fc1.bias f4 [120]
000000 fe 00 ba 3e 42 ba 58 bd 19 12 d6 bd 10 a2 d6 bd
       0.36328882 -0.052912004 -0.104526706 -0.1048013
000010 b0 0d e8 bd a5 f7 21 3c e4 8b 54 bd cd ae 19 bf
       -0.11330736 0.009885703 -0.051891223 -0.6003235
000020 73 b6 53 bc b6 dc 4d 3e 5f 2a d7 bb 8b 42 63 bd
       -0.012921917 0.20103726 -0.0065663303 -0.055483382
000030 fc 8b cb 3f 07 d0 8f be 82 62 36 bd 0c eb 7f bd
       1.5902095 -0.280884 -0.044527538 -0.062480018
000040 b1 37 cb bd cc d1 03 bd 4c 67 9c bd 33 f7 16 3f
       -0.09922732 -0.0321825 -0.0763689 0.58970946
000050 74 b2 a8 be ae a6 d9 bc 2d ed 8a bd 66 80 3c be
       -0.3294865 -0.026568737 -0.06783519 -0.18408355
000060 7e 5c c9 be 2d 39 4f be d2 9c 69 bd e3 38 43 bf
       -0.39328378 -0.20236655 -0.05703432 -0.7625868
000070 e8 86 1f bc 9c 1c b3 be 90 7b b7 bd 36 a7 4d 3d
       -0.009736754 -0.34982765 -0.089591146 0.050208293
000080 03 b5 cf 3d 87 d0 9e bc bc 4d 46 bf 9f b4 94 3d
       0.10141947 -0.019386543 -0.77462363 0.07261013
000090 d1 25 d3 be 6e 17 c4 3e dc 9c 8f bd 04 2f 78 bd
       -0.4123979 0.38299125 -0.070123404 -0.060591713
0000a0 d8 0a 1e bf 02 7f 47 be 29 5d 89 be 02 04 91 3f
       -0.61735296 -0.19482043 -0.26828888 1.1329348
0000b0 93 07 fd bd 1e 21 2f be 35 e5 ab bd b1 b6 f0 be
       -0.1235496 -0.17102477 -0.08393327 -0.47014382
0000c0 18 4c af bd c6 3e ce 3d d7 44 af bd 37 7e ea 3e
       -0.085594356 0.10070567 -0.08558052 0.4579942
0000d0 f4 70 da 3e 6b 00 59 bd b7 d8 cf 3e 2d 22 f5 3d
       0.426643 -0.052978914 0.40595028 0.11969409
0000e0 ea 6e ab bd 98 89 00 bd f2 79 31 bd 83 bb 9d 3e
       -0.083707646 -0.03138122 -0.043329187 0.30807123
0000f0 d9 40 00 bf 5f 06 40 bd 95 ed 17 bf ee 7c 79 be
       -0.5009895 -0.046881076 -0.59346896 -0.24364063
000100 f7 ae 04 bf de c4 0e bd 60 5c 9f bd 39 d5 13 be
       -0.51829475 -0.034855716 -0.07781291 -0.14436807
000110 c5 65 79 bd de cc 51 bc 1d 7a 20 3e 77 f9 4f 3f
       -0.06088807 -0.012805192 0.15671583 0.8124003
000120 6e 70 3c 3f af d8 3d bd d0 78 38 bd 52 5d 25 be
       0.73609054 -0.046349224 -0.04503709 -0.1614888
000130 2d 3c fb bd 54 b9 08 3f 61 a6 e2 3e 49 1d d6 3d
       -0.12267337 0.5340779 0.44267562 0.104548045
000140 f8 8f f7 3c 29 f3 28 bd e2 05 a8 bc c2 aa 98 3e
       0.030220017 -0.04124752 -0.020510618 0.29817778
000150 ec 1d 14 bf 34 6c 72 bd e5 59 a3 be 19 00 9f bd
       -0.5785816 -0.05918522 -0.31904522 -0.077636905
000160 c3 7d 38 bd bb c9 1b bd 28 4d af 3e ba 7d 0a 3e
       -0.04504181 -0.038034182 0.34238553 0.13524523
000170 ee 04 31 bf 79 4d 34 bd 7f d5 a1 bd c3 3f 31 3f
       -0.6914815 -0.044019196 -0.07902049 0.6923792
000180 3c fe a8 bd eb e5 37 be 10 8c 3b bd 51 db 2f 3f
       -0.08251616 -0.179588 -0.04578787 0.68694025
000190 42 0a c3 be fe e9 73 be 34 08 bf bd 3a 6e e8 3d
       -0.38093764 -0.2381973 -0.093277365 0.11349149
0001a0 31 04 45 bd 31 b9 1e 3f d9 85 94 bc c7 8c cc 3e
       -0.0480997 0.6200133 -0.01813023 0.39951155
0001b0 1b 8a d3 bd 58 54 4e be 7c 83 08 3e 4a 05 2f bd
       -0.10329076 -0.20149362 0.13331407 -0.042729653
0001c0 17 67 84 bd 07 ae af 3d f1 ec 17 3f bb 03 5d 3f
       -0.06464975 0.08578115 0.5934592 0.8633382
0001d0 4b eb 22 3f a5 cf 82 3d 06 20 39 3f 77 e2 53 3f
       0.6364028 0.06387261 0.7231449 0.8276743

fc2.weight f4 [84, 120]
000000 0e ca 88 bc 49 0d 93 bd ec 50 b9 3c ca 25 8b bd
       -0.01669791 -0.07180268 0.022621594 -0.06794317
000010 dd f3 8a 3d f9 eb 9f bc 6a ba 16 bd 47 b1 95 bd
       0.067847945 -0.0195217 -0.036798872 -0.073092036
000020 4a a5 82 bd b7 49 85 3d bc 2f 24 3b cd cf 64 bd
       -0.06379183 0.065082006 0.0025052866 -0.055862237
000030 58 3f 43 be 89 c3 c9 bd f8 24 af bc 6a b5 db 3b
       -0.19067132 -0.098517485 -0.021379933 0.006704976
000040 f4 0e a9 bd ad 35 8d bd 66 69 2f bd a6 21 80 bd
       -0.08254805 -0.068950035 -0.042825125 -0.06256418
000050 f1 77 04 be b0 93 65 3d 40 98 30 bd 37 2b 08 be
       -0.12936379 0.05604905 -0.043113947 -0.13297735
000060 1d 8f 06 3d bc d2 76 3d e2 fc f7 bd fe d1 62 be
       0.032851327 0.060259566 -0.121087804 -0.22150418
000070 86 05 73 bd 75 21 04 be 21 60 2f 3d d8 20 df bd
       -0.05933144 -0.12903388 0.042816285 -0.10894936
000080 fa 06 74 3c c0 ca 21 3d ad 69 22 ba 8d e1 3e bc
       0.0148942415 0.039499998 -0.00061955565 -0.011650455
000090 e5 d5 15 bd 4e d7 93 bd 16 55 62 bd f1 8b d9 3c
       -0.03658094 -0.072188005 -0.055256926 0.026555987
0000a0 5a ff 51 be c0 77 76 bd 05 e4 ef bc 8c 23 0a 3d
       -0.20507565 -0.060172796 -0.029283533 0.033725306
0000b0 d4 f9 6a bd 0e 9c 6f bd a3 a0 0d bd 92 f0 98 3d
       -0.05736716 -0.058498435 -0.034577023 0.0746776
0000c0 df ed 86 bd 37 24 50 bc 0c 7d c9 3c be 09 4a 3a
       -0.06588339 -0.012703947 0.02459576 0.000770714
0000d0 c7 84 13 be ec 49 6f 3d 91 a8 a3 be 77 a4 db bd
       -0.1440612 0.058420107 -0.31964543 -0.107247286
0000e0 b1 bb ac 3d b4 fd 5a bc 77 47 4d bc 2d aa 58 bd
       0.08434237 -0.013366152 -0.012529246 -0.052896667
0000f0 07 48 5a be e1 46 06 bd d5 5d 00 3c b5 16 03 be
       -0.21316539 -0.03278244 0.007834871 -0.12801631
000100 35 c8 5e 3d f1 98 d8 3d 98 be fd 3c 2e 5d 9c 3b
       0.05439015 0.10576046 0.030974671 0.00477185
000110 aa ab 96 bd c8 fe fc bc 00 72 8f bd 90 de 26 be
       -0.07356961 -0.030883208 -0.07004166 -0.16295838
000120 23 f2 10 bd ed 04 e1 3a 31 7d b6 3d ae f8 bf 3d
       -0.03538717 0.0017167606 0.08910597 0.09373604
000130 5d c6 c4 bd 5d f5 a5 bc 0e b8 20 be 05 40 85 3c
       -0.09608147 -0.0202586 -0.15695211 0.016265878
000140 7e 3c 9f bd f3 e5 a6 3d a6 b3 84 3d 5a 3f a1 3c
       -0.0777521 0.08149328 0.06479578 0.019683529
000150 75 72 0f 3d bc 2b d1 3a c8 4a 0e bd d9 45 3c 3d
       0.035021264 0.0015958468 -0.034739286 0.04596505
000160 87 2b ec 3b d0 44 86 bb b5 ba 0a 3d 6a 9c 63 be
       0.0072073373 -0.0040975586 0.033869464 -0.22227636
000170 46 e2 5d bd b5 92 26 bd aa d1 9f bc 9e cf 14 3d
       -0.05417087 -0.040667254 -0.019509155 0.03633081
000180 74 9c b0 bd 4c 13 2e be a7 3d 21 bd 0b 62 2c be
       -0.08623591 -0.16999549 -0.039365437 -0.16834275
000190 2e a7 8e 3d c4 4f 47 3d b6 12 3d bd 13 d7 97 bd
       0.06965481 0.048660055 -0.046160422 -0.07414069
0001a0 2e 56 c9 bb 65 2f 12 bd b5 b9 14 3d 76 c7 4d bd
       -0.0061443066 -0.03568973 0.036309917 -0.05023905
0001b0 06 50 83 bd f0 2f a6 3d fa 90 85 be b8 63 59 3c
       -0.06411748 0.08114612 -0.2608717 0.013268404
0001c0 9d 0c 38 3a 95 57 8c 3c 91 2f a3 bd 87 2b 08 3d
       0.00070209225 0.017131606 -0.07968057 0.033244636
0001d0 3a d4 8b bd c6 b7 92 bc b8 8c 3a be 7f 8b ee bd
       -0.068275884 -0.017909896 -0.18217742 -0.116477005
0001e0 e7 d9 27 be b9 0a 1c 3e 36 8e a1 bc d8 1e bb 3e
       -0.16391717 0.15238465 -0.019721132 0.3654697
0001f0 3a 66 82 3e 4e 14 90 be fc 76 91 bc a3 30 0c 3e
       0.25468618 -0.2814049 -0.017756931 0.13690428
000200 b1 25 f3 bc 48 a9 36 3e 43 7a 8d 3d 2b 0f 20 bd
       -0.029681059 0.17838013 0.06908085 -0.039076965
000210 a8 01 a1 be de f5 05 3e 5e aa b9 bd 86 ae 1f be
       -0.31446576 0.13082072 -0.09065698 -0.15593919
000220 91 ed 8b 3d a1 19 81 bd d6 9c 8f 3d d4 63 81 3c
       0.068324216 -0.063037165 0.07012336 0.015794672
000230 7d 3e 35 3e ac 68 29 3d c9 3c 98 bd c2 b6 90 be
       0.17699619 0.04135959 -0.07433469 -0.28264433
000240 0e f6 6c bd 4c 46 b8 bd 22 04 20 bd 94 ca b4 3d
       -0.057851844 -0.08997783 -0.03906644 0.08827701
000250 71 2e 65 3b db cd 68 be 39 81 9d 3d d0 4b 01 be
       0.0034970308 -0.22734778 0.07690663 -0.12626576
000260 49 64 43 be d3 01 05 bd d5 11 92 bd 35 3f fe 3c
       -0.19081225 -0.032472443 -0.071323074 0.031035999
000270 ba 3f ac 3d 2a 48 5c be 19 f3 93 3d 96 c1 a1 3d
       0.084105924 -0.21511903 0.072241016 0.07898252
000280 33 86 80 be 3c a8 81 bd 5c d7 79 be 4b 2f 8a bd
       -0.25102386 -0.06330916 -0.2439856 -0.06747302
000290 e4 83 aa 3c f5 d8 83 ba b0 49 4f 3d 4f ec ee 3d
       0.020814843 -0.0010059165 0.050607383 0.11666166
0002a0 de c1 b1 be 15 12 30 3d 05 55 f0 3d 70 f3 6d be
       -0.3471822 0.042985994 0.11734966 -0.23237395
0002b0 b0 c7 eb 3e f1 df 07 3d 4c 61 98 bd ea 64 1b be
       0.46050787 0.03317255 -0.07440433 -0.15175214
0002c0 7e 22 76 3c 65 bd 82 be 31 16 e3 bd 8e a0 be bc
       0.015022872 -0.25535122 -0.11088217 -0.023269918
0002d0 7d f4 49 3e 30 2d fd be 6b bf 10 3e bd b1 f7 bd
       0.19722171 -0.49448538 0.1413552 -0.12094448
0002e0 2a de 19 3e c7 bf 8e 3d b0 f2 8c 3b 20 61 4e bc
       0.15026155 0.069701724 0.0043013915 -0.012596399
0002f0 3d 23 bb 3c fb 45 0a bd ae 46 14 be f0 5a cd bd
       0.022843951 -0.033758145 -0.14480087 -0.100271106
000300 be 54 c7 3d fb 5c dd 3d 8f fd 5b 3d b4 af dd bc
       0.0973296 0.1080875 0.05370861 -0.02706132
000310 5d cb ce bd 94 30 c3 bd 48 72 e4 be 23 24 15 3e
       -0.10097382 -0.0953075 -0.4461844 0.14564566
000320 9a 0a 7a bd 58 8d 4f bd 7f e1 12 bd 86 ae 0a 3e
       -0.061045267 -0.050671905 -0.03585958 0.13543138
000330 92 82 86 bd 47 ee 8a 3e 37 44 99 3c d2 67 56 bc
       -0.06567873 0.27134916 0.018709285 -0.013086276
000340 60 c9 90 3d 6f 6d 9b bd 28 90 7b ba e4 75 c5 be
       0.07069659 -0.07589232 -0.0009596371 -0.38566506
000350 2a bc 96 be d7 e2 05 bd fc 83 15 bd 21 74 04 3e
       -0.29440433 -0.032687034 -0.036502823 0.12934925
000360 b7 07 b1 bc 67 44 b4 bb ee a5 b2 bd 1a 85 a9 bd
       -0.021610124 -0.0055013183 -0.08723055 -0.0827734
000370 b6 d6 1d 3e 26 5f 76 3e db a5 f0 bd d2 c7 95 3e
       0.15413937 0.24059734 -0.117503844 0.29254013
000380 5f f4 0e bc fb 9d d6 3c ed 81 12 3d 3a 3a 38 3e
       -0.008725255 0.026198378 0.035768438 0.17990962
000390 62 62 1b 3d 6f b3 76 3c 2f 97 a8 3e 1b 3f d5 bc
       0.037935622 0.015057429 0.32927844 -0.026031068
0003a0 34 d7 b6 bd ed 3f 03 3e 4a e2 ab be 56 99 ae be
       -0.089277655 0.12817355 -0.33571082 -0.3410136
0003b0 9a 3c 55 3e b8 85 43 3d e7 d2 1d be fb af 4f 3e
       0.20823899 0.047734946 -0.15412484 0.20281975
0003c0 49 ad 97 bd 17 11 63 3d f8 81 2e 3d c8 64 8e bd
       -0.074060984 0.05543622 0.042604417 -0.06952816
0003d0 04 d0 6b bc d7 65 94 bd 88 e5 98 bd 3e 30 41 bc
       -0.0143928565 -0.07245987 -0.074656546 -0.011791287
0003e0 48 e8 4e bc 1c 01 aa bc f4 39 82 bd 33 f4 0b bd
       -0.012628622 -0.020752482 -0.0635871 -0.034168433
0003f0 f7 0a 10 bd b9 fb db 3d 48 2a 58 3c 00 8b 7a 3d
       -0.035166707 0.10741372 0.013193674 0.061167717

fc2.bias f4 [84]
000000 d3 04 fc bd e2 50 d5 bd 4c 1f 72 be 66 2e ba bd
       -0.12305608 -0.10415818 -0.23644751 -0.09090881
000010 fc 6c 93 be 1c 91 08 bf 23 bc 52 bf f6 4d 60 be
       -0.28794086 -0.5334642 -0.82318324 -0.2190474
000020 aa 23 68 3d e6 ef 28 3f 05 c1 30 3f aa 82 22 3e
       0.056674637 0.65991056 0.69044524 0.15870157
000030 94 76 40 be 0d 7a 84 3f e1 55 d9 be 36 5e d5 3f
       -0.18795234 1.0349747 -0.42448333 1.6669376
000040 c5 37 23 3c 40 29 b8 3f 14 53 c1 be cd 09 c4 3f
       0.009962027 1.4387589 -0.37758696 1.5315491
000050 00 6e a0 be fe ee 5d be 4b 3d 46 be b1 e8 43 bd
       -0.31333923 -0.216732 -0.19359319 -0.047829334
000060 ab 0f b8 be a7 f1 0c 3e a7 67 45 3f 3f 17 8d be
       -0.35949454 0.13764058 0.77111286 -0.27556798
000070 21 58 12 3f 6f d0 d5 be 41 50 25 bf 78 8f 32 bf
       0.57165724 -0.41760585 -0.6457558 -0.69750166
000080 a0 06 d3 3f 97 d8 b0 be 9a ab 03 bf eb d9 e8 be
       1.6486397 -0.34540245 -0.5143372 -0.45478758
000090 24 8e bd 3f 9a 9e 9d 3e 62 7f 1d bf c1 c5 d7 3d
       1.4809003 0.30785066 -0.61522496 0.105357654
0000a0 e8 e8 e2 bd 0e 7d 8f be a2 97 a1 3e cf 42 67 bc
       -0.110795796 -0.28025097 0.31561 -0.0141150495
0000b0 d0 9c 1d bf 9f 53 b3 be 35 44 1a be f1 7a 8a 3f
       -0.615674 -0.35024735 -0.15065081 1.0818769
0000c0 d6 33 c0 3e 89 0f ef bd f3 ec 4c be 94 ff b2 bd
       0.37539548 -0.11672885 -0.20012264 -0.08740154
0000d0 4f f1 5d be 13 ea 02 bf 83 3c 6f be 41 99 e6 3f
       -0.21674083 -0.5113842 -0.23362927 1.8015519
0000e0 f8 80 a5 be d5 74 4e be e4 bb df 3f 4f 07 41 3f
       -0.32324958 -0.20161755 1.7479215 0.7540178
0000f0 fe fa 9c 3d 33 d4 b0 be 6a ac 0d be 07 20 b2 be
       0.076650605 -0.34536895 -0.13835302 -0.3479006
000100 64 cf 8e 3f a0 12 85 bd c0 74 d1 bd 49 12 02 3e
       1.115704 -0.06497693 -0.102273464 0.12702288
000110 f1 2c c6 3f f2 b9 e2 be 46 70 be 3c 7b 0a 05 be
       1.5482465 -0.4428249 0.023246896 -0.12992279
000120 64 a1 94 3e e3 ff a0 be e4 8c fc be f1 65 8e be
       0.2902938 -0.31445226 -0.4932624 -0.2781215
000130 a2 4e 52 be 5a 66 01 bf 93 13 9d 3d 96 3e 42 3f
       -0.20537809 -0.505468 0.07669749 0.7587675
000140 33 d8 a9 be 55 c0 68 3f 3f d5 98 3f 0a ac f6 be
       -0.3317276 0.90918475 1.1940078 -0.4817813

fc3.weight f4 [10, 84]
000000 5c ad b0 be 76 08 d0 bd 02 c2 4c be 43 05 d9 bd
       -0.34507263 -0.10157864 -0.19995883 -0.10596707
000010 f9 cf 65 bf 7a d5 c7 bf a2 77 8f be 0a 4a f4 bd
       -0.89770466 -1.5612023 -0.2802096 -0.11928184
000020 5b 62 a7 bd 51 f9 33 be bc d1 43 bd 40 a0 ff be
       -0.08173057 -0.17575575 -0.04780744 -0.4992695
000030 48 0c 04 be 21 86 e5 bd 10 3c 5c bf a1 0c e9 bd
       -0.1289531 -0.11207224 -0.8602915 -0.11379362
000040 fe 85 6e be 06 e9 43 bc fa ba 13 be 10 5b 0b be
       -0.23293301 -0.011957413 -0.14426795 -0.13608956
000050 38 6b 11 bf 29 70 23 bf 6c 54 3a bf 05 03 bd be
       -0.5680423 -0.6384302 -0.7278507 -0.36916366
000060 c0 0b 9b be 3e 6f 4c be 6c f8 af be 15 12 d4 be
       -0.30282402 -0.1996431 -0.34369218 -0.41420045
000070 7e cc aa be 1f 74 9d be 17 1e 17 bf 84 a6 3a be
       -0.3335914 -0.30752656 -0.5903029 -0.18227583
000080 b3 d3 6c be 54 f4 5d bf e9 ab 0c bf 67 92 2e bf
       -0.23127632 -0.8670094 -0.54949814 -0.6819214
000090 54 7d 80 bd 31 18 4a bf 59 8c 79 bf c4 0f 26 be
       -0.062739044 -0.78943163 -0.9747978 -0.16216952
0000a0 ca 35 95 bb e1 17 00 bf 76 60 9e be 12 42 07 bf
       -0.0045535313 -0.50036436 -0.3093297 -0.5283519
0000b0 7a 85 e1 be 3e 5a e1 be 83 b0 a6 b9 1d 30 45 bd
       -0.44047147 -0.44014162 -0.000317935 -0.048141588
0000c0 92 c3 61 bf ac 46 5f be 80 74 58 be dc 50 9e bd
       -0.8818904 -0.21804303 -0.21138191 -0.077302665
0000d0 27 80 d5 bc 2e 09 27 bf a1 6c d9 bd 12 f0 c5 be
       -0.026062084 -0.6524838 -0.106164224 -0.38659722
0000e0 00 6d ed 3c 39 9f d3 3c 0f 5d 99 be 7f 3c b2 bd
       0.02898264 0.02583276 -0.2995381 -0.08702945
0000f0 a9 06 c0 bd 5f 92 02 bf f9 47 27 bd 8a d8 b3 be
       -0.0937627 -0.51004595 -0.040840123 -0.35126144
000100 c8 ce 2a be 31 98 0d be 3e b9 2f bf 03 ec 7a 3b
       -0.16680443 -0.13827588 -0.6864203 0.0038287647
000110 5a f4 52 be b7 18 30 bf 9b 97 23 be 61 02 76 bd
       -0.20601025 -0.6878771 -0.15975802 -0.060060862
000120 57 26 8f bd ae 96 5e be 92 c3 4d bf e6 ef f5 bd
       -0.069897346 -0.21737167 -0.8037654 -0.120086476
000130 c7 a9 ff bb 85 9e e6 be f4 2c 7a bf f2 87 e3 bc
       -0.0078022215 -0.45042816 -0.97724843 -0.027774785
000140 9c 42 86 bf 50 7b 24 bd d4 00 af be 03 51 16 bf
       -1.0489078 -0.040156662 -0.3418032 -0.58717364
000150 87 94 8e bd 87 7f e7 be 61 77 66 bd 89 e2 e5 be
       -0.06961923 -0.45214483 -0.056266192 -0.44899395
000160 69 12 fc be 00 59 7a be fa 61 41 be 50 fd 5b bd
       -0.49232796 -0.24448013 -0.18885031 -0.053708375
000170 8a ba 15 bf 08 13 2d bf 48 9a 37 be 4c 5e a3 bf
       -0.5848776 -0.67607164 -0.17929947 -1.2763152
000180 cb 59 06 3c 88 ce 78 3b da 60 8e be 8d 70 89 be
       0.008200119 0.00379649 -0.27808267 -0.26843682
000190 d2 98 c7 be b9 46 66 bd 8a 2b 30 bf e8 5e f8 bc
       -0.3898378 -0.05621979 -0.68816435 -0.030318692
0001a0 05 d6 91 bf f0 d0 0e be 00 d3 d4 bf f9 46 1a bf
       -1.1393439 -0.13946891 -1.6626892 -0.60264546
0001b0 1e b5 69 be 63 62 e8 be b9 c8 0f be ea c8 0a bf
       -0.22822997 -0.45387563 -0.14041413 -0.5421282
0001c0 81 75 70 be 87 d4 79 be 7a bd 61 be b5 40 b6 bf
       -0.23482324 -0.24397479 -0.22044936 -1.4238497
0001d0 3d 11 6d be 20 8d a0 be 27 25 0a be 08 3d a9 be
       -0.23151107 -0.3135767 -0.13490735 -0.33054376
0001e0 a1 e4 8e be 42 ec 8c be 4f c1 c0 bf ad c4 eb bd
       -0.27908805 -0.27524 -1.5058993 -0.11512122
0001f0 69 78 a9 bc 66 88 9a bd a8 fe 50 bf f6 6c 13 bf
       -0.020687299 -0.07545547 -0.81638575 -0.57588136
000200 37 a0 03 be 26 c7 10 bf 77 d7 2b be d3 1c 1e bd
       -0.12854086 -0.56553876 -0.16781412 -0.038601708
000210 b3 52 4f bf e9 e2 13 be df 6d 46 be a0 71 d8 bd
       -0.80985564 -0.14442028 -0.1937785 -0.10568547
000220 d1 4a d5 bd eb 06 4a bf 56 3a 6f bb b3 cc 41 be
       -0.10414661 -0.78916806 -0.0036503277 -0.18925743
000230 8b 0d d4 3d 66 0d 4c bd 79 52 83 be 5d 38 f6 bc
       0.103541456 -0.049817465 -0.2564886 -0.030056173
000240 9d 8c 7c 3d 99 33 64 c0 f3 50 65 3d a9 4d 8d bf
       0.061657537 -3.5656493 0.055985402 -1.1039325
000250 eb c6 f1 bd 8b f8 56 be 29 3e a9 bf b9 d1 71 be
       -0.11805519 -0.20993249 -1.3222095 -0.23615159
000260 26 89 00 be 66 46 4c be 41 06 50 be d6 06 73 be
       -0.12552318 -0.1994873 -0.20314886 -0.23733076
000270 2a e2 19 be c4 38 f3 be 1f a0 8c be a0 74 ac 3c
       -0.15027681 -0.47504246 -0.27465913 0.021051705
000280 e5 a5 46 be b4 48 12 bf d4 ab a1 bf a9 07 88 be
       -0.19399221 -0.57142186 -1.2630563 -0.26568344
000290 4a 57 48 bf 1c 7b 55 be d9 e5 f7 bc 80 29 b7 be
       -0.7825819 -0.20847744 -0.030260967 -0.3577385
0002a0 a3 a8 42 be a7 35 de be 59 b5 e4 bd 23 d4 29 be
       -0.19009642 -0.43400308 -0.11167402 -0.1658483
0002b0 90 a3 ac bf 41 4f ad bf 99 98 b4 be 33 d4 a8 be
       -1.3487415 -1.3539811 -0.35272673 -0.32974395
0002c0 e8 b3 54 be f7 04 f2 be e0 64 8b be 3f 37 93 be
       -0.20771754 -0.47269413 -0.272254 -0.28753087
0002d0 51 40 18 3d 86 2d f0 bd a8 d0 32 bf 2a 8b 50 bc
       0.037170712 -0.11727433 -0.69849634 -0.012728492
0002e0 f8 17 7b be a8 ee 15 be ec e8 51 be ce 5c 98 bd
       -0.24520862 -0.14641821 -0.20499009 -0.07439576
0002f0 80 7c 1e bf 0f 9f 76 be d6 45 69 bf 83 c5 f3 be
       -0.6190872 -0.24084114 -0.91122186 -0.47611627
000300 8d 22 aa bf 48 c3 f6 bd 71 57 9b be b2 33 1c bf
       -1.3291794 -0.12048966 -0.3034015 -0.6101638
000310 ae 23 ca be 0f 86 62 bf 58 09 0e bf 55 a1 59 be
       -0.39480346 -0.8848581 -0.5548301 -0.2125295
000320 99 cd f5 bd 4c 0c 82 bf c4 64 b7 be 60 a6 23 bf
       -0.12002105 -1.0160003 -0.35819066 -0.63925743
000330 52 4a a2 bd 48 55 12 bf 56 b5 6b bf 17 fc 0b be
       -0.07924332 -0.5716138 -0.9207357 -0.13670383
000340 9e 38 2b be b0 12 c0 be 2b bb 3e bf 0b 85 cb be
       -0.16720816 -0.37514257 -0.74504346 -0.3974994
000350 9a c8 ad bf e1 f9 fa be 14 ab dc bd c7 da 52 bd
       -1.3576844 -0.49018767 -0.10774818 -0.051478174
000360 72 86 e5 be 29 cc 88 be b2 e3 ad be 18 2a 32 be
       -0.44829136 -0.26718262 -0.3396278 -0.1739887
000370 95 17 20 bf f3 d7 50 bf 33 db 02 be 2c ca 0b 3b
       -0.62535983 -0.8157951 -0.1277893 0.002133022
000380 3b 16 90 bd 4a fc a8 3d 71 00 f1 bd 4d b5 64 be
       -0.0703549 0.08251245 -0.11767662 -0.22334786
000390 a4 a6 8d be 78 e3 7f be 69 66 bf bc 0b 9e 37 be
       -0.276662 -0.24989116 -0.023364263 -0.17931382
0003a0 98 b4 ca be ef 48 c7 be e0 3d b7 bf 71 09 04 3a
       -0.39590907 -0.3892283 -1.4315758 0.0005036807
0003b0 1a f9 67 bd 46 8d 32 bf d0 fe 8e bd 03 52 1c be
       -0.056634046 -0.69746816 -0.069821954 -0.1526566
0003c0 e5 23 27 bd 20 61 66 be 95 63 5c bf 35 6d af 3c
       -0.040805716 -0.22497988 -0.8608945 0.021414379
0003d0 34 f3 12 bd 6e ac c9 be 29 f2 c2 be 64 6e 95 bc
       -0.035876468 -0.39389366 -0.3807538 -0.018241115
0003e0 8e cd e6 be f3 c5 02 be 6c 5d b1 be e2 40 57 bf
       -0.450787 -0.12770824 -0.34641588 -0.8408338
0003f0 56 a6 0e be c3 a0 bd be 11 8e 97 bd 3d 34 47 bd
       -0.1393064 -0.37036714 -0.07400144 -0.048633803

fc3.bias f4 [10]
000000 34 3f ee be 8e 45 7b bf 59 07 41 bf 05 8f c7 3e
       -0.46532595 -0.9815301 -0.75401837 0.38976303
000010 0e 91 86 3f 17 d7 ad bd 58 58 e2 3e 7c 25 ba be
       1.0513017 -0.08488291 0.44208026 -0.36356723
000020 02 43 bc 3e ce be 71 3e
       0.36769873 0.23607942
